Model: "model_1"
_________________________________________________________________
Layer (type)                 Output Shape              Param #   
=================================================================
input_2 (InputLayer)         [(None, 224, 224, 3)]     0         
_________________________________________________________________
conv2d_13 (Conv2D)           (None, 224, 224, 64)      1792      
_________________________________________________________________
conv2d_14 (Conv2D)           (None, 224, 224, 64)      36928     
_________________________________________________________________
max_pooling2d_5 (MaxPooling2 (None, 112, 112, 64)      0         
_________________________________________________________________
conv2d_15 (Conv2D)           (None, 112, 112, 128)     73856     
_________________________________________________________________
conv2d_16 (Conv2D)           (None, 112, 112, 128)     147584    
_________________________________________________________________
max_pooling2d_6 (MaxPooling2 (None, 56, 56, 128)       0         
_________________________________________________________________
conv2d_17 (Conv2D)           (None, 56, 56, 256)       295168    
_________________________________________________________________
conv2d_18 (Conv2D)           (None, 56, 56, 256)       590080    
_________________________________________________________________
conv2d_19 (Conv2D)           (None, 56, 56, 256)       590080    
_________________________________________________________________
max_pooling2d_7 (MaxPooling2 (None, 28, 28, 256)       0         
_________________________________________________________________
conv2d_20 (Conv2D)           (None, 28, 28, 512)       1180160   
_________________________________________________________________
conv2d_21 (Conv2D)           (None, 28, 28, 512)       2359808   
_________________________________________________________________
conv2d_22 (Conv2D)           (None, 28, 28, 512)       2359808   
_________________________________________________________________
max_pooling2d_8 (MaxPooling2 (None, 14, 14, 512)       0         
_________________________________________________________________
conv2d_23 (Conv2D)           (None, 14, 14, 512)       2359808   
_________________________________________________________________
conv2d_24 (Conv2D)           (None, 14, 14, 512)       2359808   
_________________________________________________________________
conv2d_25 (Conv2D)           (None, 14, 14, 512)       2359808   
_________________________________________________________________
max_pooling2d_9 (MaxPooling2 (None, 7, 7, 512)         0         
_________________________________________________________________
flatten_1 (Flatten)          (None, 25088)             0         
_________________________________________________________________
dense_4 (Dense)              (None, 4096)              102764544 
_________________________________________________________________
dense_5 (Dense)              (None, 4096)              16781312  
_________________________________________________________________
dense_6 (Dense)              (None, 1000)              4097000   
=================================================================
Total params: 138,357,544
Trainable params: 138,357,544
Non-trainable params: 0
_________________________________________________________________
