Model: "model_2"
_________________________________________________________________
Layer (type)                 Output Shape              Param #   
=================================================================
input_3 (InputLayer)         [(None, 224, 224, 3)]     0         
_________________________________________________________________
conv1_1 (Conv2D)             (None, 224, 224, 64)      1792      
_________________________________________________________________
conv1_2 (Conv2D)             (None, 224, 224, 64)      36928     
_________________________________________________________________
maxpool_1 (MaxPooling2D)     (None, 112, 112, 64)      0         
_________________________________________________________________
conv2_1 (Conv2D)             (None, 112, 112, 128)     73856     
_________________________________________________________________
conv2_2 (Conv2D)             (None, 112, 112, 128)     147584    
_________________________________________________________________
maxpool_2 (MaxPooling2D)     (None, 56, 56, 128)       0         
_________________________________________________________________
conv3_1 (Conv2D)             (None, 56, 56, 256)       295168    
_________________________________________________________________
conv3_2 (Conv2D)             (None, 56, 56, 256)       590080    
_________________________________________________________________
conv3_3 (Conv2D)             (None, 56, 56, 256)       590080    
_________________________________________________________________
conv3_4 (Conv2D)             (None, 56, 56, 256)       590080    
_________________________________________________________________
maxpool_3 (MaxPooling2D)     (None, 28, 28, 256)       0         
_________________________________________________________________
conv4_1 (Conv2D)             (None, 28, 28, 512)       1180160   
_________________________________________________________________
conv4_2 (Conv2D)             (None, 28, 28, 512)       2359808   
_________________________________________________________________
conv4_3 (Conv2D)             (None, 28, 28, 512)       2359808   
_________________________________________________________________
conv4_4 (Conv2D)             (None, 28, 28, 512)       2359808   
_________________________________________________________________
maxpool_4 (MaxPooling2D)     (None, 14, 14, 512)       0         
_________________________________________________________________
conv5_1 (Conv2D)             (None, 14, 14, 512)       2359808   
_________________________________________________________________
conv5_2 (Conv2D)             (None, 14, 14, 512)       2359808   
_________________________________________________________________
conv5_3 (Conv2D)             (None, 14, 14, 512)       2359808   
_________________________________________________________________
conv5_4 (Conv2D)             (None, 14, 14, 512)       2359808   
_________________________________________________________________
maxpool_5 (MaxPooling2D)     (None, 7, 7, 512)         0         
_________________________________________________________________
flatten_2 (Flatten)          (None, 25088)             0         
_________________________________________________________________
dense_6 (Dense)              (None, 4096)              102764544 
_________________________________________________________________
dropout_4 (Dropout)          (None, 4096)              0         
_________________________________________________________________
dense_7 (Dense)              (None, 4096)              16781312  
_________________________________________________________________
dropout_5 (Dropout)          (None, 4096)              0         
_________________________________________________________________
dense_8 (Dense)              (None, 1000)              4097000   
=================================================================
Total params: 143,667,240
Trainable params: 143,667,240
Non-trainable params: 0
_________________________________________________________________
