Model: "MobileNet_V1"
_________________________________________________________________
Layer (type)                 Output Shape              Param #   
=================================================================
input_37 (InputLayer)        [(None, 224, 224, 3)]     0         
_________________________________________________________________
conv2d_338 (Conv2D)          (None, 112, 112, 32)      896       
_________________________________________________________________
batch_normalization_648 (Bat (None, 112, 112, 32)      128       
_________________________________________________________________
re_lu_648 (ReLU)             (None, 112, 112, 32)      0         
_________________________________________________________________
depthwise_conv2d_312 (Depthw (None, 112, 112, 32)      320       
_________________________________________________________________
batch_normalization_649 (Bat (None, 112, 112, 32)      128       
_________________________________________________________________
re_lu_649 (ReLU)             (None, 112, 112, 32)      0         
_________________________________________________________________
conv2d_339 (Conv2D)          (None, 112, 112, 64)      2112      
_________________________________________________________________
batch_normalization_650 (Bat (None, 112, 112, 64)      256       
_________________________________________________________________
re_lu_650 (ReLU)             (None, 112, 112, 64)      0         
_________________________________________________________________
depthwise_conv2d_313 (Depthw (None, 56, 56, 64)        640       
_________________________________________________________________
batch_normalization_651 (Bat (None, 56, 56, 64)        256       
_________________________________________________________________
re_lu_651 (ReLU)             (None, 56, 56, 64)        0         
_________________________________________________________________
conv2d_340 (Conv2D)          (None, 56, 56, 128)       8320      
_________________________________________________________________
batch_normalization_652 (Bat (None, 56, 56, 128)       512       
_________________________________________________________________
re_lu_652 (ReLU)             (None, 56, 56, 128)       0         
_________________________________________________________________
depthwise_conv2d_314 (Depthw (None, 56, 56, 128)       1280      
_________________________________________________________________
batch_normalization_653 (Bat (None, 56, 56, 128)       512       
_________________________________________________________________
re_lu_653 (ReLU)             (None, 56, 56, 128)       0         
_________________________________________________________________
conv2d_341 (Conv2D)          (None, 56, 56, 128)       16512     
_________________________________________________________________
batch_normalization_654 (Bat (None, 56, 56, 128)       512       
_________________________________________________________________
re_lu_654 (ReLU)             (None, 56, 56, 128)       0         
_________________________________________________________________
depthwise_conv2d_315 (Depthw (None, 28, 28, 128)       1280      
_________________________________________________________________
batch_normalization_655 (Bat (None, 28, 28, 128)       512       
_________________________________________________________________
re_lu_655 (ReLU)             (None, 28, 28, 128)       0         
_________________________________________________________________
conv2d_342 (Conv2D)          (None, 28, 28, 256)       33024     
_________________________________________________________________
batch_normalization_656 (Bat (None, 28, 28, 256)       1024      
_________________________________________________________________
re_lu_656 (ReLU)             (None, 28, 28, 256)       0         
_________________________________________________________________
depthwise_conv2d_316 (Depthw (None, 28, 28, 256)       2560      
_________________________________________________________________
batch_normalization_657 (Bat (None, 28, 28, 256)       1024      
_________________________________________________________________
re_lu_657 (ReLU)             (None, 28, 28, 256)       0         
_________________________________________________________________
conv2d_343 (Conv2D)          (None, 28, 28, 256)       65792     
_________________________________________________________________
batch_normalization_658 (Bat (None, 28, 28, 256)       1024      
_________________________________________________________________
re_lu_658 (ReLU)             (None, 28, 28, 256)       0         
_________________________________________________________________
depthwise_conv2d_317 (Depthw (None, 14, 14, 256)       2560      
_________________________________________________________________
batch_normalization_659 (Bat (None, 14, 14, 256)       1024      
_________________________________________________________________
re_lu_659 (ReLU)             (None, 14, 14, 256)       0         
_________________________________________________________________
conv2d_344 (Conv2D)          (None, 14, 14, 512)       131584    
_________________________________________________________________
batch_normalization_660 (Bat (None, 14, 14, 512)       2048      
_________________________________________________________________
re_lu_660 (ReLU)             (None, 14, 14, 512)       0         
_________________________________________________________________
depthwise_conv2d_318 (Depthw (None, 14, 14, 512)       5120      
_________________________________________________________________
batch_normalization_661 (Bat (None, 14, 14, 512)       2048      
_________________________________________________________________
re_lu_661 (ReLU)             (None, 14, 14, 512)       0         
_________________________________________________________________
conv2d_345 (Conv2D)          (None, 14, 14, 512)       262656    
_________________________________________________________________
batch_normalization_662 (Bat (None, 14, 14, 512)       2048      
_________________________________________________________________
re_lu_662 (ReLU)             (None, 14, 14, 512)       0         
_________________________________________________________________
depthwise_conv2d_319 (Depthw (None, 14, 14, 512)       5120      
_________________________________________________________________
batch_normalization_663 (Bat (None, 14, 14, 512)       2048      
_________________________________________________________________
re_lu_663 (ReLU)             (None, 14, 14, 512)       0         
_________________________________________________________________
conv2d_346 (Conv2D)          (None, 14, 14, 512)       262656    
_________________________________________________________________
batch_normalization_664 (Bat (None, 14, 14, 512)       2048      
_________________________________________________________________
re_lu_664 (ReLU)             (None, 14, 14, 512)       0         
_________________________________________________________________
depthwise_conv2d_320 (Depthw (None, 14, 14, 512)       5120      
_________________________________________________________________
batch_normalization_665 (Bat (None, 14, 14, 512)       2048      
_________________________________________________________________
re_lu_665 (ReLU)             (None, 14, 14, 512)       0         
_________________________________________________________________
conv2d_347 (Conv2D)          (None, 14, 14, 512)       262656    
_________________________________________________________________
batch_normalization_666 (Bat (None, 14, 14, 512)       2048      
_________________________________________________________________
re_lu_666 (ReLU)             (None, 14, 14, 512)       0         
_________________________________________________________________
depthwise_conv2d_321 (Depthw (None, 14, 14, 512)       5120      
_________________________________________________________________
batch_normalization_667 (Bat (None, 14, 14, 512)       2048      
_________________________________________________________________
re_lu_667 (ReLU)             (None, 14, 14, 512)       0         
_________________________________________________________________
conv2d_348 (Conv2D)          (None, 14, 14, 512)       262656    
_________________________________________________________________
batch_normalization_668 (Bat (None, 14, 14, 512)       2048      
_________________________________________________________________
re_lu_668 (ReLU)             (None, 14, 14, 512)       0         
_________________________________________________________________
depthwise_conv2d_322 (Depthw (None, 14, 14, 512)       5120      
_________________________________________________________________
batch_normalization_669 (Bat (None, 14, 14, 512)       2048      
_________________________________________________________________
re_lu_669 (ReLU)             (None, 14, 14, 512)       0         
_________________________________________________________________
conv2d_349 (Conv2D)          (None, 14, 14, 512)       262656    
_________________________________________________________________
batch_normalization_670 (Bat (None, 14, 14, 512)       2048      
_________________________________________________________________
re_lu_670 (ReLU)             (None, 14, 14, 512)       0         
_________________________________________________________________
depthwise_conv2d_323 (Depthw (None, 7, 7, 512)         5120      
_________________________________________________________________
batch_normalization_671 (Bat (None, 7, 7, 512)         2048      
_________________________________________________________________
re_lu_671 (ReLU)             (None, 7, 7, 512)         0         
_________________________________________________________________
conv2d_350 (Conv2D)          (None, 7, 7, 1024)        525312    
_________________________________________________________________
batch_normalization_672 (Bat (None, 7, 7, 1024)        4096      
_________________________________________________________________
re_lu_672 (ReLU)             (None, 7, 7, 1024)        0         
_________________________________________________________________
depthwise_conv2d_324 (Depthw (None, 7, 7, 1024)        10240     
_________________________________________________________________
batch_normalization_673 (Bat (None, 7, 7, 1024)        4096      
_________________________________________________________________
re_lu_673 (ReLU)             (None, 7, 7, 1024)        0         
_________________________________________________________________
conv2d_351 (Conv2D)          (None, 7, 7, 1024)        1049600   
_________________________________________________________________
batch_normalization_674 (Bat (None, 7, 7, 1024)        4096      
_________________________________________________________________
re_lu_674 (ReLU)             (None, 7, 7, 1024)        0         
_________________________________________________________________
global_average_pooling2d_14  (None, 1024)              0         
_________________________________________________________________
dense_43 (Dense)             (None, 1024)              1049600   
_________________________________________________________________
dense_44 (Dense)             (None, 512)               524800    
_________________________________________________________________
dense_45 (Dense)             (None, 1000)              513000    
=================================================================
Total params: 5,327,208
Trainable params: 5,305,320
Non-trainable params: 21,888
_________________________________________________________________
