Model: "ResNet50"
__________________________________________________________________________________________________
Layer (type)                    Output Shape         Param #     Connected to                     
==================================================================================================
input_2 (InputLayer)            [(None, 224, 224, 3) 0                                            
__________________________________________________________________________________________________
conv2d_53 (Conv2D)              (None, 112, 112, 64) 9472        input_2[0][0]                    
__________________________________________________________________________________________________
batch_normalization_53 (BatchNo (None, 112, 112, 64) 256         conv2d_53[0][0]                  
__________________________________________________________________________________________________
re_lu_49 (ReLU)                 (None, 112, 112, 64) 0           batch_normalization_53[0][0]     
__________________________________________________________________________________________________
max_pooling2d_1 (MaxPooling2D)  (None, 56, 56, 64)   0           re_lu_49[0][0]                   
__________________________________________________________________________________________________
conv2d_54 (Conv2D)              (None, 56, 56, 64)   4160        max_pooling2d_1[0][0]            
__________________________________________________________________________________________________
batch_normalization_54 (BatchNo (None, 56, 56, 64)   256         conv2d_54[0][0]                  
__________________________________________________________________________________________________
re_lu_50 (ReLU)                 (None, 56, 56, 64)   0           batch_normalization_54[0][0]     
__________________________________________________________________________________________________
conv2d_55 (Conv2D)              (None, 56, 56, 64)   36928       re_lu_50[0][0]                   
__________________________________________________________________________________________________
batch_normalization_55 (BatchNo (None, 56, 56, 64)   256         conv2d_55[0][0]                  
__________________________________________________________________________________________________
re_lu_51 (ReLU)                 (None, 56, 56, 64)   0           batch_normalization_55[0][0]     
__________________________________________________________________________________________________
conv2d_56 (Conv2D)              (None, 56, 56, 256)  16640       re_lu_51[0][0]                   
__________________________________________________________________________________________________
conv2d_57 (Conv2D)              (None, 56, 56, 256)  16640       max_pooling2d_1[0][0]            
__________________________________________________________________________________________________
batch_normalization_56 (BatchNo (None, 56, 56, 256)  1024        conv2d_56[0][0]                  
__________________________________________________________________________________________________
batch_normalization_57 (BatchNo (None, 56, 56, 256)  1024        conv2d_57[0][0]                  
__________________________________________________________________________________________________
add_16 (Add)                    (None, 56, 56, 256)  0           batch_normalization_56[0][0]     
                                                                 batch_normalization_57[0][0]     
__________________________________________________________________________________________________
re_lu_52 (ReLU)                 (None, 56, 56, 256)  0           add_16[0][0]                     
__________________________________________________________________________________________________
conv2d_58 (Conv2D)              (None, 56, 56, 64)   16448       re_lu_52[0][0]                   
__________________________________________________________________________________________________
batch_normalization_58 (BatchNo (None, 56, 56, 64)   256         conv2d_58[0][0]                  
__________________________________________________________________________________________________
re_lu_53 (ReLU)                 (None, 56, 56, 64)   0           batch_normalization_58[0][0]     
__________________________________________________________________________________________________
conv2d_59 (Conv2D)              (None, 56, 56, 64)   36928       re_lu_53[0][0]                   
__________________________________________________________________________________________________
batch_normalization_59 (BatchNo (None, 56, 56, 64)   256         conv2d_59[0][0]                  
__________________________________________________________________________________________________
re_lu_54 (ReLU)                 (None, 56, 56, 64)   0           batch_normalization_59[0][0]     
__________________________________________________________________________________________________
conv2d_60 (Conv2D)              (None, 56, 56, 256)  16640       re_lu_54[0][0]                   
__________________________________________________________________________________________________
batch_normalization_60 (BatchNo (None, 56, 56, 256)  1024        conv2d_60[0][0]                  
__________________________________________________________________________________________________
add_17 (Add)                    (None, 56, 56, 256)  0           batch_normalization_60[0][0]     
                                                                 re_lu_52[0][0]                   
__________________________________________________________________________________________________
re_lu_55 (ReLU)                 (None, 56, 56, 256)  0           add_17[0][0]                     
__________________________________________________________________________________________________
conv2d_61 (Conv2D)              (None, 56, 56, 64)   16448       re_lu_55[0][0]                   
__________________________________________________________________________________________________
batch_normalization_61 (BatchNo (None, 56, 56, 64)   256         conv2d_61[0][0]                  
__________________________________________________________________________________________________
re_lu_56 (ReLU)                 (None, 56, 56, 64)   0           batch_normalization_61[0][0]     
__________________________________________________________________________________________________
conv2d_62 (Conv2D)              (None, 56, 56, 64)   36928       re_lu_56[0][0]                   
__________________________________________________________________________________________________
batch_normalization_62 (BatchNo (None, 56, 56, 64)   256         conv2d_62[0][0]                  
__________________________________________________________________________________________________
re_lu_57 (ReLU)                 (None, 56, 56, 64)   0           batch_normalization_62[0][0]     
__________________________________________________________________________________________________
conv2d_63 (Conv2D)              (None, 56, 56, 256)  16640       re_lu_57[0][0]                   
__________________________________________________________________________________________________
batch_normalization_63 (BatchNo (None, 56, 56, 256)  1024        conv2d_63[0][0]                  
__________________________________________________________________________________________________
add_18 (Add)                    (None, 56, 56, 256)  0           batch_normalization_63[0][0]     
                                                                 re_lu_55[0][0]                   
__________________________________________________________________________________________________
re_lu_58 (ReLU)                 (None, 56, 56, 256)  0           add_18[0][0]                     
__________________________________________________________________________________________________
conv2d_64 (Conv2D)              (None, 28, 28, 128)  32896       re_lu_58[0][0]                   
__________________________________________________________________________________________________
batch_normalization_64 (BatchNo (None, 28, 28, 128)  512         conv2d_64[0][0]                  
__________________________________________________________________________________________________
re_lu_59 (ReLU)                 (None, 28, 28, 128)  0           batch_normalization_64[0][0]     
__________________________________________________________________________________________________
conv2d_65 (Conv2D)              (None, 28, 28, 128)  147584      re_lu_59[0][0]                   
__________________________________________________________________________________________________
batch_normalization_65 (BatchNo (None, 28, 28, 128)  512         conv2d_65[0][0]                  
__________________________________________________________________________________________________
re_lu_60 (ReLU)                 (None, 28, 28, 128)  0           batch_normalization_65[0][0]     
__________________________________________________________________________________________________
conv2d_66 (Conv2D)              (None, 28, 28, 512)  66048       re_lu_60[0][0]                   
__________________________________________________________________________________________________
conv2d_67 (Conv2D)              (None, 28, 28, 512)  131584      re_lu_58[0][0]                   
__________________________________________________________________________________________________
batch_normalization_66 (BatchNo (None, 28, 28, 512)  2048        conv2d_66[0][0]                  
__________________________________________________________________________________________________
batch_normalization_67 (BatchNo (None, 28, 28, 512)  2048        conv2d_67[0][0]                  
__________________________________________________________________________________________________
add_19 (Add)                    (None, 28, 28, 512)  0           batch_normalization_66[0][0]     
                                                                 batch_normalization_67[0][0]     
__________________________________________________________________________________________________
re_lu_61 (ReLU)                 (None, 28, 28, 512)  0           add_19[0][0]                     
__________________________________________________________________________________________________
conv2d_68 (Conv2D)              (None, 28, 28, 128)  65664       re_lu_61[0][0]                   
__________________________________________________________________________________________________
batch_normalization_68 (BatchNo (None, 28, 28, 128)  512         conv2d_68[0][0]                  
__________________________________________________________________________________________________
re_lu_62 (ReLU)                 (None, 28, 28, 128)  0           batch_normalization_68[0][0]     
__________________________________________________________________________________________________
conv2d_69 (Conv2D)              (None, 28, 28, 128)  147584      re_lu_62[0][0]                   
__________________________________________________________________________________________________
batch_normalization_69 (BatchNo (None, 28, 28, 128)  512         conv2d_69[0][0]                  
__________________________________________________________________________________________________
re_lu_63 (ReLU)                 (None, 28, 28, 128)  0           batch_normalization_69[0][0]     
__________________________________________________________________________________________________
conv2d_70 (Conv2D)              (None, 28, 28, 512)  66048       re_lu_63[0][0]                   
__________________________________________________________________________________________________
batch_normalization_70 (BatchNo (None, 28, 28, 512)  2048        conv2d_70[0][0]                  
__________________________________________________________________________________________________
add_20 (Add)                    (None, 28, 28, 512)  0           batch_normalization_70[0][0]     
                                                                 re_lu_61[0][0]                   
__________________________________________________________________________________________________
re_lu_64 (ReLU)                 (None, 28, 28, 512)  0           add_20[0][0]                     
__________________________________________________________________________________________________
conv2d_71 (Conv2D)              (None, 28, 28, 128)  65664       re_lu_64[0][0]                   
__________________________________________________________________________________________________
batch_normalization_71 (BatchNo (None, 28, 28, 128)  512         conv2d_71[0][0]                  
__________________________________________________________________________________________________
re_lu_65 (ReLU)                 (None, 28, 28, 128)  0           batch_normalization_71[0][0]     
__________________________________________________________________________________________________
conv2d_72 (Conv2D)              (None, 28, 28, 128)  147584      re_lu_65[0][0]                   
__________________________________________________________________________________________________
batch_normalization_72 (BatchNo (None, 28, 28, 128)  512         conv2d_72[0][0]                  
__________________________________________________________________________________________________
re_lu_66 (ReLU)                 (None, 28, 28, 128)  0           batch_normalization_72[0][0]     
__________________________________________________________________________________________________
conv2d_73 (Conv2D)              (None, 28, 28, 512)  66048       re_lu_66[0][0]                   
__________________________________________________________________________________________________
batch_normalization_73 (BatchNo (None, 28, 28, 512)  2048        conv2d_73[0][0]                  
__________________________________________________________________________________________________
add_21 (Add)                    (None, 28, 28, 512)  0           batch_normalization_73[0][0]     
                                                                 re_lu_64[0][0]                   
__________________________________________________________________________________________________
re_lu_67 (ReLU)                 (None, 28, 28, 512)  0           add_21[0][0]                     
__________________________________________________________________________________________________
conv2d_74 (Conv2D)              (None, 28, 28, 128)  65664       re_lu_67[0][0]                   
__________________________________________________________________________________________________
batch_normalization_74 (BatchNo (None, 28, 28, 128)  512         conv2d_74[0][0]                  
__________________________________________________________________________________________________
re_lu_68 (ReLU)                 (None, 28, 28, 128)  0           batch_normalization_74[0][0]     
__________________________________________________________________________________________________
conv2d_75 (Conv2D)              (None, 28, 28, 128)  147584      re_lu_68[0][0]                   
__________________________________________________________________________________________________
batch_normalization_75 (BatchNo (None, 28, 28, 128)  512         conv2d_75[0][0]                  
__________________________________________________________________________________________________
re_lu_69 (ReLU)                 (None, 28, 28, 128)  0           batch_normalization_75[0][0]     
__________________________________________________________________________________________________
conv2d_76 (Conv2D)              (None, 28, 28, 512)  66048       re_lu_69[0][0]                   
__________________________________________________________________________________________________
batch_normalization_76 (BatchNo (None, 28, 28, 512)  2048        conv2d_76[0][0]                  
__________________________________________________________________________________________________
add_22 (Add)                    (None, 28, 28, 512)  0           batch_normalization_76[0][0]     
                                                                 re_lu_67[0][0]                   
__________________________________________________________________________________________________
re_lu_70 (ReLU)                 (None, 28, 28, 512)  0           add_22[0][0]                     
__________________________________________________________________________________________________
conv2d_77 (Conv2D)              (None, 14, 14, 256)  131328      re_lu_70[0][0]                   
__________________________________________________________________________________________________
batch_normalization_77 (BatchNo (None, 14, 14, 256)  1024        conv2d_77[0][0]                  
__________________________________________________________________________________________________
re_lu_71 (ReLU)                 (None, 14, 14, 256)  0           batch_normalization_77[0][0]     
__________________________________________________________________________________________________
conv2d_78 (Conv2D)              (None, 14, 14, 256)  590080      re_lu_71[0][0]                   
__________________________________________________________________________________________________
batch_normalization_78 (BatchNo (None, 14, 14, 256)  1024        conv2d_78[0][0]                  
__________________________________________________________________________________________________
re_lu_72 (ReLU)                 (None, 14, 14, 256)  0           batch_normalization_78[0][0]     
__________________________________________________________________________________________________
conv2d_79 (Conv2D)              (None, 14, 14, 1024) 263168      re_lu_72[0][0]                   
__________________________________________________________________________________________________
conv2d_80 (Conv2D)              (None, 14, 14, 1024) 525312      re_lu_70[0][0]                   
__________________________________________________________________________________________________
batch_normalization_79 (BatchNo (None, 14, 14, 1024) 4096        conv2d_79[0][0]                  
__________________________________________________________________________________________________
batch_normalization_80 (BatchNo (None, 14, 14, 1024) 4096        conv2d_80[0][0]                  
__________________________________________________________________________________________________
add_23 (Add)                    (None, 14, 14, 1024) 0           batch_normalization_79[0][0]     
                                                                 batch_normalization_80[0][0]     
__________________________________________________________________________________________________
re_lu_73 (ReLU)                 (None, 14, 14, 1024) 0           add_23[0][0]                     
__________________________________________________________________________________________________
conv2d_81 (Conv2D)              (None, 14, 14, 256)  262400      re_lu_73[0][0]                   
__________________________________________________________________________________________________
batch_normalization_81 (BatchNo (None, 14, 14, 256)  1024        conv2d_81[0][0]                  
__________________________________________________________________________________________________
re_lu_74 (ReLU)                 (None, 14, 14, 256)  0           batch_normalization_81[0][0]     
__________________________________________________________________________________________________
conv2d_82 (Conv2D)              (None, 14, 14, 256)  590080      re_lu_74[0][0]                   
__________________________________________________________________________________________________
batch_normalization_82 (BatchNo (None, 14, 14, 256)  1024        conv2d_82[0][0]                  
__________________________________________________________________________________________________
re_lu_75 (ReLU)                 (None, 14, 14, 256)  0           batch_normalization_82[0][0]     
__________________________________________________________________________________________________
conv2d_83 (Conv2D)              (None, 14, 14, 1024) 263168      re_lu_75[0][0]                   
__________________________________________________________________________________________________
batch_normalization_83 (BatchNo (None, 14, 14, 1024) 4096        conv2d_83[0][0]                  
__________________________________________________________________________________________________
add_24 (Add)                    (None, 14, 14, 1024) 0           batch_normalization_83[0][0]     
                                                                 re_lu_73[0][0]                   
__________________________________________________________________________________________________
re_lu_76 (ReLU)                 (None, 14, 14, 1024) 0           add_24[0][0]                     
__________________________________________________________________________________________________
conv2d_84 (Conv2D)              (None, 14, 14, 256)  262400      re_lu_76[0][0]                   
__________________________________________________________________________________________________
batch_normalization_84 (BatchNo (None, 14, 14, 256)  1024        conv2d_84[0][0]                  
__________________________________________________________________________________________________
re_lu_77 (ReLU)                 (None, 14, 14, 256)  0           batch_normalization_84[0][0]     
__________________________________________________________________________________________________
conv2d_85 (Conv2D)              (None, 14, 14, 256)  590080      re_lu_77[0][0]                   
__________________________________________________________________________________________________
batch_normalization_85 (BatchNo (None, 14, 14, 256)  1024        conv2d_85[0][0]                  
__________________________________________________________________________________________________
re_lu_78 (ReLU)                 (None, 14, 14, 256)  0           batch_normalization_85[0][0]     
__________________________________________________________________________________________________
conv2d_86 (Conv2D)              (None, 14, 14, 1024) 263168      re_lu_78[0][0]                   
__________________________________________________________________________________________________
batch_normalization_86 (BatchNo (None, 14, 14, 1024) 4096        conv2d_86[0][0]                  
__________________________________________________________________________________________________
add_25 (Add)                    (None, 14, 14, 1024) 0           batch_normalization_86[0][0]     
                                                                 re_lu_76[0][0]                   
__________________________________________________________________________________________________
re_lu_79 (ReLU)                 (None, 14, 14, 1024) 0           add_25[0][0]                     
__________________________________________________________________________________________________
conv2d_87 (Conv2D)              (None, 14, 14, 256)  262400      re_lu_79[0][0]                   
__________________________________________________________________________________________________
batch_normalization_87 (BatchNo (None, 14, 14, 256)  1024        conv2d_87[0][0]                  
__________________________________________________________________________________________________
re_lu_80 (ReLU)                 (None, 14, 14, 256)  0           batch_normalization_87[0][0]     
__________________________________________________________________________________________________
conv2d_88 (Conv2D)              (None, 14, 14, 256)  590080      re_lu_80[0][0]                   
__________________________________________________________________________________________________
batch_normalization_88 (BatchNo (None, 14, 14, 256)  1024        conv2d_88[0][0]                  
__________________________________________________________________________________________________
re_lu_81 (ReLU)                 (None, 14, 14, 256)  0           batch_normalization_88[0][0]     
__________________________________________________________________________________________________
conv2d_89 (Conv2D)              (None, 14, 14, 1024) 263168      re_lu_81[0][0]                   
__________________________________________________________________________________________________
batch_normalization_89 (BatchNo (None, 14, 14, 1024) 4096        conv2d_89[0][0]                  
__________________________________________________________________________________________________
add_26 (Add)                    (None, 14, 14, 1024) 0           batch_normalization_89[0][0]     
                                                                 re_lu_79[0][0]                   
__________________________________________________________________________________________________
re_lu_82 (ReLU)                 (None, 14, 14, 1024) 0           add_26[0][0]                     
__________________________________________________________________________________________________
conv2d_90 (Conv2D)              (None, 14, 14, 256)  262400      re_lu_82[0][0]                   
__________________________________________________________________________________________________
batch_normalization_90 (BatchNo (None, 14, 14, 256)  1024        conv2d_90[0][0]                  
__________________________________________________________________________________________________
re_lu_83 (ReLU)                 (None, 14, 14, 256)  0           batch_normalization_90[0][0]     
__________________________________________________________________________________________________
conv2d_91 (Conv2D)              (None, 14, 14, 256)  590080      re_lu_83[0][0]                   
__________________________________________________________________________________________________
batch_normalization_91 (BatchNo (None, 14, 14, 256)  1024        conv2d_91[0][0]                  
__________________________________________________________________________________________________
re_lu_84 (ReLU)                 (None, 14, 14, 256)  0           batch_normalization_91[0][0]     
__________________________________________________________________________________________________
conv2d_92 (Conv2D)              (None, 14, 14, 1024) 263168      re_lu_84[0][0]                   
__________________________________________________________________________________________________
batch_normalization_92 (BatchNo (None, 14, 14, 1024) 4096        conv2d_92[0][0]                  
__________________________________________________________________________________________________
add_27 (Add)                    (None, 14, 14, 1024) 0           batch_normalization_92[0][0]     
                                                                 re_lu_82[0][0]                   
__________________________________________________________________________________________________
re_lu_85 (ReLU)                 (None, 14, 14, 1024) 0           add_27[0][0]                     
__________________________________________________________________________________________________
conv2d_93 (Conv2D)              (None, 14, 14, 256)  262400      re_lu_85[0][0]                   
__________________________________________________________________________________________________
batch_normalization_93 (BatchNo (None, 14, 14, 256)  1024        conv2d_93[0][0]                  
__________________________________________________________________________________________________
re_lu_86 (ReLU)                 (None, 14, 14, 256)  0           batch_normalization_93[0][0]     
__________________________________________________________________________________________________
conv2d_94 (Conv2D)              (None, 14, 14, 256)  590080      re_lu_86[0][0]                   
__________________________________________________________________________________________________
batch_normalization_94 (BatchNo (None, 14, 14, 256)  1024        conv2d_94[0][0]                  
__________________________________________________________________________________________________
re_lu_87 (ReLU)                 (None, 14, 14, 256)  0           batch_normalization_94[0][0]     
__________________________________________________________________________________________________
conv2d_95 (Conv2D)              (None, 14, 14, 1024) 263168      re_lu_87[0][0]                   
__________________________________________________________________________________________________
batch_normalization_95 (BatchNo (None, 14, 14, 1024) 4096        conv2d_95[0][0]                  
__________________________________________________________________________________________________
add_28 (Add)                    (None, 14, 14, 1024) 0           batch_normalization_95[0][0]     
                                                                 re_lu_85[0][0]                   
__________________________________________________________________________________________________
re_lu_88 (ReLU)                 (None, 14, 14, 1024) 0           add_28[0][0]                     
__________________________________________________________________________________________________
conv2d_96 (Conv2D)              (None, 7, 7, 512)    524800      re_lu_88[0][0]                   
__________________________________________________________________________________________________
batch_normalization_96 (BatchNo (None, 7, 7, 512)    2048        conv2d_96[0][0]                  
__________________________________________________________________________________________________
re_lu_89 (ReLU)                 (None, 7, 7, 512)    0           batch_normalization_96[0][0]     
__________________________________________________________________________________________________
conv2d_97 (Conv2D)              (None, 7, 7, 512)    2359808     re_lu_89[0][0]                   
__________________________________________________________________________________________________
batch_normalization_97 (BatchNo (None, 7, 7, 512)    2048        conv2d_97[0][0]                  
__________________________________________________________________________________________________
re_lu_90 (ReLU)                 (None, 7, 7, 512)    0           batch_normalization_97[0][0]     
__________________________________________________________________________________________________
conv2d_98 (Conv2D)              (None, 7, 7, 2048)   1050624     re_lu_90[0][0]                   
__________________________________________________________________________________________________
conv2d_99 (Conv2D)              (None, 7, 7, 2048)   2099200     re_lu_88[0][0]                   
__________________________________________________________________________________________________
batch_normalization_98 (BatchNo (None, 7, 7, 2048)   8192        conv2d_98[0][0]                  
__________________________________________________________________________________________________
batch_normalization_99 (BatchNo (None, 7, 7, 2048)   8192        conv2d_99[0][0]                  
__________________________________________________________________________________________________
add_29 (Add)                    (None, 7, 7, 2048)   0           batch_normalization_98[0][0]     
                                                                 batch_normalization_99[0][0]     
__________________________________________________________________________________________________
re_lu_91 (ReLU)                 (None, 7, 7, 2048)   0           add_29[0][0]                     
__________________________________________________________________________________________________
conv2d_100 (Conv2D)             (None, 7, 7, 512)    1049088     re_lu_91[0][0]                   
__________________________________________________________________________________________________
batch_normalization_100 (BatchN (None, 7, 7, 512)    2048        conv2d_100[0][0]                 
__________________________________________________________________________________________________
re_lu_92 (ReLU)                 (None, 7, 7, 512)    0           batch_normalization_100[0][0]    
__________________________________________________________________________________________________
conv2d_101 (Conv2D)             (None, 7, 7, 512)    2359808     re_lu_92[0][0]                   
__________________________________________________________________________________________________
batch_normalization_101 (BatchN (None, 7, 7, 512)    2048        conv2d_101[0][0]                 
__________________________________________________________________________________________________
re_lu_93 (ReLU)                 (None, 7, 7, 512)    0           batch_normalization_101[0][0]    
__________________________________________________________________________________________________
conv2d_102 (Conv2D)             (None, 7, 7, 2048)   1050624     re_lu_93[0][0]                   
__________________________________________________________________________________________________
batch_normalization_102 (BatchN (None, 7, 7, 2048)   8192        conv2d_102[0][0]                 
__________________________________________________________________________________________________
add_30 (Add)                    (None, 7, 7, 2048)   0           batch_normalization_102[0][0]    
                                                                 re_lu_91[0][0]                   
__________________________________________________________________________________________________
re_lu_94 (ReLU)                 (None, 7, 7, 2048)   0           add_30[0][0]                     
__________________________________________________________________________________________________
conv2d_103 (Conv2D)             (None, 7, 7, 512)    1049088     re_lu_94[0][0]                   
__________________________________________________________________________________________________
batch_normalization_103 (BatchN (None, 7, 7, 512)    2048        conv2d_103[0][0]                 
__________________________________________________________________________________________________
re_lu_95 (ReLU)                 (None, 7, 7, 512)    0           batch_normalization_103[0][0]    
__________________________________________________________________________________________________
conv2d_104 (Conv2D)             (None, 7, 7, 512)    2359808     re_lu_95[0][0]                   
__________________________________________________________________________________________________
batch_normalization_104 (BatchN (None, 7, 7, 512)    2048        conv2d_104[0][0]                 
__________________________________________________________________________________________________
re_lu_96 (ReLU)                 (None, 7, 7, 512)    0           batch_normalization_104[0][0]    
__________________________________________________________________________________________________
conv2d_105 (Conv2D)             (None, 7, 7, 2048)   1050624     re_lu_96[0][0]                   
__________________________________________________________________________________________________
batch_normalization_105 (BatchN (None, 7, 7, 2048)   8192        conv2d_105[0][0]                 
__________________________________________________________________________________________________
add_31 (Add)                    (None, 7, 7, 2048)   0           batch_normalization_105[0][0]    
                                                                 re_lu_94[0][0]                   
__________________________________________________________________________________________________
re_lu_97 (ReLU)                 (None, 7, 7, 2048)   0           add_31[0][0]                     
__________________________________________________________________________________________________
global_average_pooling2d_1 (Glo (None, 2048)         0           re_lu_97[0][0]                   
__________________________________________________________________________________________________
dense_1 (Dense)                 (None, 1000)         2049000     global_average_pooling2d_1[0][0] 
==================================================================================================
Total params: 25,636,712
Trainable params: 25,583,592
Non-trainable params: 53,120
__________________________________________________________________________________________________
