Model: "model_4"
_________________________________________________________________
Layer (type)                 Output Shape              Param #   
=================================================================
input_5 (InputLayer)         [(None, 224, 224, 3)]     0         
_________________________________________________________________
conv2d_52 (Conv2D)           (None, 224, 224, 64)      1792      
_________________________________________________________________
conv2d_53 (Conv2D)           (None, 224, 224, 64)      36928     
_________________________________________________________________
max_pooling2d_20 (MaxPooling (None, 112, 112, 64)      0         
_________________________________________________________________
conv2d_54 (Conv2D)           (None, 112, 112, 128)     73856     
_________________________________________________________________
conv2d_55 (Conv2D)           (None, 112, 112, 128)     147584    
_________________________________________________________________
max_pooling2d_21 (MaxPooling (None, 56, 56, 128)       0         
_________________________________________________________________
conv2d_56 (Conv2D)           (None, 56, 56, 256)       295168    
_________________________________________________________________
conv2d_57 (Conv2D)           (None, 56, 56, 256)       590080    
_________________________________________________________________
conv2d_58 (Conv2D)           (None, 56, 56, 256)       590080    
_________________________________________________________________
max_pooling2d_22 (MaxPooling (None, 28, 28, 256)       0         
_________________________________________________________________
conv2d_59 (Conv2D)           (None, 28, 28, 512)       1180160   
_________________________________________________________________
conv2d_60 (Conv2D)           (None, 28, 28, 512)       2359808   
_________________________________________________________________
conv2d_61 (Conv2D)           (None, 28, 28, 512)       2359808   
_________________________________________________________________
max_pooling2d_23 (MaxPooling (None, 14, 14, 512)       0         
_________________________________________________________________
conv2d_62 (Conv2D)           (None, 14, 14, 512)       2359808   
_________________________________________________________________
conv2d_63 (Conv2D)           (None, 14, 14, 512)       2359808   
_________________________________________________________________
conv2d_64 (Conv2D)           (None, 14, 14, 512)       2359808   
_________________________________________________________________
max_pooling2d_24 (MaxPooling (None, 7, 7, 512)         0         
_________________________________________________________________
flatten_4 (Flatten)          (None, 25088)             0         
_________________________________________________________________
dense_12 (Dense)             (None, 4096)              102764544 
_________________________________________________________________
dense_13 (Dense)             (None, 4096)              16781312  
_________________________________________________________________
dense_14 (Dense)             (None, 1000)              4097000   
=================================================================
Total params: 138,357,544
Trainable params: 138,357,544
Non-trainable params: 0
_________________________________________________________________
